…
2024-07-15 17:24:26.389527: I tensorflow/core/platform/cpu_feature_guard.cc:142] This TensorFlow binary is optimized with oneAPI Deep Neural Network Library (oneDNN) to use the following CPU instructions in performance-critical operations:  AVX2 FMA
To enable them in other operations, rebuild TensorFlow with the appropriate compiler flags.
INFO     Network type: REG
INFO     Model: "sequential"
INFO     _________________________________________________________________
INFO     Layer (type)                 Output Shape              Param #
INFO     =================================================================
INFO     dense (Dense)                (None, 1024)              2098176
INFO     _________________________________________________________________
INFO     dropout (Dropout)            (None, 1024)              0
INFO     _________________________________________________________________
INFO     dense_1 (Dense)              (None, 512)               524800
INFO     _________________________________________________________________
INFO     dropout_1 (Dropout)          (None, 512)               0
INFO     _________________________________________________________________
INFO     dense_2 (Dense)              (None, 256)               131328
INFO     _________________________________________________________________
INFO     dropout_2 (Dropout)          (None, 256)               0
INFO     _________________________________________________________________
INFO     dense_3 (Dense)              (None, 128)               32896
INFO     _________________________________________________________________
INFO     dropout_3 (Dropout)          (None, 128)               0
INFO     _________________________________________________________________
INFO     dense_4 (Dense)              (None, 1)                 129
INFO     =================================================================
INFO     Total params: 2,787,329
INFO     Trainable params: 2,787,329
INFO     Non-trainable params: 0
INFO     _________________________________________________________________
WARNING:tensorflow:`period` argument is deprecated. Please use `save_freq` to specify the frequency in number of batches seen.
WARNING  `period` argument is deprecated. Please use `save_freq` to specify the frequency in number of batches seen.
…
Epoch 03790: val_loss improved from 0.88711 to 0.88584, saving model to /home/shanavas/PycharmProjects/deepFPlearn/example/dilshana-results-train/scaled_data_AR/AR_single-labeled_Fold-5.model.weights.hdf5
Epoch 3791/5000
INFO     Computation time for training the single-label model for AR: 91.44 min
INFO     Network type: REG
INFO     Model: "sequential"
INFO     _________________________________________________________________
INFO     Layer (type)                 Output Shape              Param #
INFO     =================================================================
INFO     dense (Dense)                (None, 1024)              2098176
INFO     _________________________________________________________________
INFO     dropout (Dropout)            (None, 1024)              0
INFO     _________________________________________________________________
INFO     dense_1 (Dense)              (None, 512)               524800
INFO     _________________________________________________________________
INFO     dropout_1 (Dropout)          (None, 512)               0
INFO     _________________________________________________________________
INFO     dense_2 (Dense)              (None, 256)               131328
INFO     _________________________________________________________________
INFO     dropout_2 (Dropout)          (None, 256)               0
INFO     _________________________________________________________________
INFO     dense_3 (Dense)              (None, 128)               32896
INFO     _________________________________________________________________
INFO     dropout_3 (Dropout)          (None, 128)               0
INFO     _________________________________________________________________
INFO     dense_4 (Dense)              (None, 1)                 129
INFO     =================================================================
INFO     Total params: 2,787,329
INFO     Trainable params: 2,787,329
INFO     Non-trainable params: 0
INFO     _________________________________________________________________
26/26 - 1s - loss: 0.4642 - val_loss: 0.8863
Restoring model weights from the end of the best epoch.
Epoch 03791: early stopping
INFO     Evaluating trained model 'AR single-labeled Fold-5' on test data
INFO     Network type: REG
INFO     Model: "sequential_1"
INFO     _________________________________________________________________
INFO     Layer (type)                 Output Shape              Param #
INFO     =================================================================
INFO     dense_5 (Dense)              (None, 1024)              2098176
INFO     _________________________________________________________________
INFO     dropout_4 (Dropout)          (None, 1024)              0
INFO     _________________________________________________________________
INFO     dense_6 (Dense)              (None, 512)               524800
INFO     _________________________________________________________________
INFO     dropout_5 (Dropout)          (None, 512)               0
INFO     _________________________________________________________________
INFO     dense_7 (Dense)              (None, 256)               131328
INFO     _________________________________________________________________
INFO     dropout_6 (Dropout)          (None, 256)               0
INFO     _________________________________________________________________
INFO     dense_8 (Dense)              (None, 128)               32896
INFO     _________________________________________________________________
INFO     dropout_7 (Dropout)          (None, 128)               0
INFO     _________________________________________________________________
INFO     dense_9 (Dense)              (None, 1)                 129
INFO     =================================================================
INFO     Total params: 2,787,329
INFO     Trainable params: 2,787,329
INFO     Non-trainable params: 0
INFO     _________________________________________________________________
2024-07-16 00:22:42.838043: W tensorflow/python/util/util.cc:348] Sets are not currently considered sequences, but this may change in the future, so consider avoiding using them.
…
